…
":"Sergio Langarita","userId":"00334444535396266362"},"user_tz":-60},"id":"jqTD3S9zh9ps","outputId":"8e172fc1-d12d-43a2-e43f-f17d3a50ae4c"},"outputs":[{"output_type":"stream","name":"stdout","text":["Model: \"model\"\n","_________________________________________________________________\n"," Layer (type)                Output Shape              Param #   \n","=================================================================\n"," input_1 (InputLayer)        [(None, 128, 128, 3)]     0         \n","                                                                 \n"," conv2d (Conv2D)             (None, 128, 128, 16)      448       \n","                                                                 \n"," batch_normalization (BatchN  (None, 128, 128, 16)     64        \n"," ormalization)                                                   \n","                                                                 \n"," activation (Activation)     (None, 128, 128, 16)      0         \n","                                                                 \n"," conv2d_1 (Conv2D)           (None, 128, 128, 64)      9280      \n","                                                                 \n"," batch_normalization_1 (Batc  (None, 128, 128, 64)     256       \n"," hNormalization)                                                 \n","                                                                 \n"," activation_1 (Activation)   (None, 128, 128, 64)      0         \n","                                                                 \n"," max_pooling2d (MaxPooling2D  (None, 64, 64, 64)       0         \n"," )                                                               \n","                                                                 \n"," conv2d_2 (Conv2D)           (None, 64, 64, 128)       73856     \n","                                                                 \n"," batch_normalization_2 (Batc  (None, 64, 64, 128)      512       \n"," hNormalization)                                                 \n","                                                                 \n"," activation_2 (Activation)   (None, 64, 64, 128)       0         \n","                                                                 \n"," conv2d_3 (Conv2D)           (None, 64, 64, 256)       295168    \n","                                                                 \n"," batch_normalization_3 (Batc  (None, 64, 64, 256)      1024      \n"," hNormalization)                                                 \n","                                                                 \n"," activation_3 (Activation)   (None, 64, 64, 256)       0         \n","                                                                 \n"," max_pooling2d_1 (MaxPooling  (None, 32, 32, 256)      0         \n"," 2D)                                                             \n","                                                                 \n"," conv2d_4 (Conv2D)           (None, 32, 32, 256)       590080    \n","                                                                 \n"," batch_normalization_4 (Batc  (None, 32, 32, 256)      1024      \n"," hNormalization)                                                 \n","                                                                 \n"," activation_4 (Activation)   (None, 32, 32, 256)       0         \n","                                                                 \n"," conv2d_5 (Conv2D)           (None, 32, 32, 256)       590080    \n","                                                                 \n"," batch_normalization_5 (Batc  (None, 32, 32, 256)      1024      \n"," hNormalization)                                                 \n","                                                                 \n"," activation_5 (Activation)   (None, 32, 32, 256)       0         \n","                                                                 \n"," max_pooling2d_2 (MaxPooling  (None, 16, 16, 256)      0         \n"," 2D)                                                             \n","                                                                 \n"," conv2d_6 (Conv2D)           (None, 16, 16, 512)       1180160   \n","                                                                 \n"," batch_normalization_6 (Batc  (None, 16, 16, 512)      2048      \n"," hNormalization)                                                 \n","                                                                 \n"," activation_6 (Activation)   (None, 16, 16, 512)       0         \n","                                                                 \n"," conv2d_7 (Conv2D)           (None, 16, 16, 512)       2359808   \n","                                                                 \n"," batch_normalization_7 (Batc  (None, 16, 16, 512)      2048      \n"," hNormalization)                                                 \n","                                                                 \n"," activation_7 (Activation)   (None, 16, 16, 512)       0         \n","                                                                 \n"," max_pooling2d_3 (MaxPooling  (None, 8, 8, 512)        0         \n"," 2D)                                                             \n","                                                                 \n"," conv2d_8 (Conv2D)           (None, 8, 8, 1024)        4719616   \n","                                                                 \n"," batch_normalization_8 (Batc  (None, 8, 8, 1024)       4096      \n"," hNormalization)                                                 \n","                                                                 \n"," activation_8 (Activation)   (None, 8, 8, 1024)        0         \n","                                                                 \n"," conv2d_9 (Conv2D)           (None, 8, 8, 1024)        9438208   \n","                                                                 \n"," batch_normalization_9 (Batc  (None, 8, 8, 1024)       4096      \n"," hNormalization)                                                 \n","                                                                 \n"," activation_9 (Activation)   (None, 8, 8, 1024)        0         \n","                                                                 \n"," flatten (Flatten)           (None, 65536)             0         \n","                                                                 \n"," dense (Dense)               (None, 516)               33817092  \n","                                                                 \n"," batch_normalization_10 (Bat  (None, 516)              2064      \n"," chNormalization)                                                \n","                                                                 \n"," activation_10 (Activation)  (None, 516)               0         \n","                                                                 \n"," dense_1 (Dense)             (None, 4)                 2068      \n","                                                                 \n","=================================================================\n","Total params: 53,094,120\n","Trainable params: 53,084,992\n","Non-trainable params: 9,128\n","_________________________________________________________________\n"]}],"source":["input_shape = (x_train.shape[1], x_train.shape[2], 3)\n","cnn = cnn_1(in
…
